samples/puzzle_mnist_3_3_5000_CubeSpaceAE_AMA4Conv_kltune2/logs/05-06T11:21:55.052/batch_normalization_7_weights.npy (npy, 640 bytes, 1 tensors)

array f4 [4, 32]
0.45461977 0.56581527 0.3620673 0.53428745 0.60409856 0.71735793 0.555837 0.49671298
0.5878067 0.45664746 0.552958 0.51631314 0.46401003 0.55793333 0.5564057 0.66795725
0.44579908 0.4635293 0.36708507 0.48559445 0.52643037 0.56839615 0.56013906 0.5449968
0.39238268 0.52449894 0.6466536 0.60813385 0.5004178 0.64124227 0.68748987 0.5612673
-0.004352667 -0.008423114 -0.0041777357 -0.006528099 -0.010706428 -0.0053763585 -0.01225321 -0.0056841876
-0.011415206 -0.004627321 -0.008659323 -0.008048383 -0.0055953483 -0.010401591 -0.0064427336 -0.008534587
-0.008953129 -0.002443084 -0.0013210049 -0.0074932873 -0.007116681 -0.010022287 -0.0071347887 -0.010318034
-0.0032546942 -0.009288796 -0.003882808 -0.0071678692 -0.005420265 -0.0046736663 -0.007849976 -0.010060352
1.1818672 1.6589 1.3283128 1.3496013 1.1848973 1.6554089 1.0541552 1.433592
0.9773542 0.98203284 1.3209687 1.235413 1.7641975 1.3285042 1.3385988 1.2910899
1.2668144 1.3388895 1.2127153 1.1683168 1.1884282 1.3268738 1.0539436 1.3662161
0.97533643 1.4832665 1.6041383 1.7030152 1.2286831 1.3634375 1.591713 1.289986
10.052472 9.646439 9.088537 9.211998 8.7197895 9.848047 9.11036 9.425814
7.7124815 8.569042 9.871921 10.036106 11.374395 9.435823 8.7448635 7.835563
9.494598 9.715448 9.803193 9.555106 8.903243 9.447292 9.181431 10.187167
7.9967422 9.909032 9.979367 9.9344 9.124196 9.682976 9.54244 9.411063
00000000: ecc3 e83e 45d9 103f e360 b93e 10c7 083f
00000010: 34a6 1a3f c5a4 373f 554b 0e3f 2a51 fe3e
00000020: 807a 163f b2cd e93e a88e 0d3f 192d 043f
00000030: b992 ed3e b8d4 0e3f 9b70 0e3f 3fff 2a3f
00000040: c73f e43e b653 ed3e 93f2 bb3e d69f f83e
00000050: 24c4 063f 6982 113f 4665 0f3f e984 0b3f
00000060: 62e6 c83e 9045 063f 178b 253f a9ae 1b3f
00000070: 621b 003f 7428 243f 56ff 2f3f 37af 0f3f
00000080: d1a0 8ebb 1a01 0abc 63e5 88bb aae9 d5bb
00000090: 046a 2fbc 2a2c b0bb b0c1 48bc 6c42 babb
000000a0: d806 3bbc c8a0 97bb d5df 0dbc 5ddd 03bc
000000b0: 2f59 b7bb 6f6b 2abc 911d d3bb a7d4 0bbc
000000c0: 25b0 12bc 261c 20bb 9225 adba 408a f5bb
000000d0: 0c33 e9bb 8534 24bc f2ca e9bb f90c 29bc
000000e0: b54c 55bb 0930 18bc b576 7ebb 72e0 eabb
000000f0: 7a9c b1bb 8e25 99bb 309d 00bc 2dd4 24bc
00000100: 6d47 973f d656 d43f 2706 aa3f bcbf ac3f
00000110: b7aa 973f 70e4 d33f 8fee 863f f17f b73f
00000120: e333 7a3f 8166 7b3f 8115 a93f 0322 9e3f
00000130: 39d1 e13f 6d0c aa3f 3557 ab3f 6f42 a53f
00000140: f926 a23f bb60 ab3f 413a 9b3f 688b 953f
00000150: 6a1e 983f 00d7 a93f a0e7 863f 2be0 ae3f
00000160: a6af 793f addb bd3f 6754 cd3f 67fc d93f
00000170: 7d45 9d3f 1f85 ae3f 40bd cb3f 431e a53f
00000180: edd6 2041 d057 1a41 a66a 1141 5864 1341
00000190: 4284 0b41 9a91 1d41 09c4 1141 22d0 1641
000001a0: a6cc f640 cc1a 0941 63f3 1d41 e493 2041
000001b0: 86fd 3541 22f9 1641 f6ea 0b41 efbc fa40
000001c0: e0e9 1741 7a72 1b41 e1d9 1c41 b7e1 1841
000001d0: af73 0e41 1c28 1741 24e7 1241 a3fe 2241
000001e0: 50e5 ff40 658b 1e41 7dab 1f41 4df3 1e41
000001f0: b5fc 1141 78ed 1a41 d6ad 1841 b793 1641
