samples/puzzle_mnist_3_3_5000_CubeSpaceAE_AMA4Conv_kltune2/logs/05-06T11:21:55.052/conv2d_1_weights.npy (npy, 3328 bytes, 1 tensors)

array f4 [1, 5, 5, 1, 32]
000000 e5 b8 d0 3e 70 5d 8f bd 3c e4 d9 be c4 4e 09 be
       0.40766063 -0.07000244 -0.42556942 -0.13408953
000010 49 48 03 3d 35 83 5a 3f cd b8 44 3f 2b 0e 2c bf
       0.03205136 0.85356456 0.76844484 -0.6720912
000020 ce 34 88 be 08 92 0a bf ed 55 48 3f be bb 07 3f
       -0.26602787 -0.54129076 0.7825611 0.53020847
000030 f7 5c d3 be a4 c4 03 3d 41 a8 a6 3a 40 87 17 3f
       -0.41281864 0.032169953 0.0012714938 0.5919075
000040 58 91 16 3f c9 48 b9 3e 70 46 0b bf 46 d7 db bd
       0.58815527 0.36188343 -0.54404354 -0.107344195
000050 4b ff 71 be 7c 15 46 be 15 3d f7 bd 8f 31 a4 be
       -0.23632543 -0.19344133 -0.12072197 -0.3206906
000060 dd 44 a3 be 5b 1f 4f bf 25 f1 70 3f 64 4e 99 3f
       -0.31888476 -0.8090722 0.9411796 1.1977048
000070 9f 56 2d 3e b0 90 5b bd b8 c1 a9 bd 04 50 36 3e
       0.16927575 -0.05360478 -0.08288902 0.17803961
000080 89 90 28 3e 78 64 e5 bc dc 73 7e 3e 7e 5d be be
       0.16461386 -0.028002009 0.24848884 -0.37180704
000090 63 59 45 be 34 2b 03 3e 4d 88 76 be c4 da ca be
       -0.1927238 0.1280945 -0.24075432 -0.3962003
0000a0 48 99 f6 3d c7 10 9d be eb 4e 57 be 87 88 57 3e
       0.12040955 -0.30676863 -0.21026199 0.21048175
0000b0 45 33 a2 3e f6 dc 0c bd d5 5d 92 be e9 f0 25 3e
       0.3167974 -0.034390412 -0.28587213 0.16205181
0000c0 a8 c2 d8 bd a8 dc e6 3e c5 cb b1 be cd fd 6c be
       -0.10584003 0.45090222 -0.34725776 -0.23143692
0000d0 1d 60 9d 3e a1 5a 2c be f0 7b 27 3f 76 48 e3 3e
       0.3073739 -0.16831447 0.6542349 0.4439122
0000e0 93 33 78 be 49 f5 b7 bd dc d1 80 3e 6e 1a 1c 3e
       -0.24238424 -0.08982331 0.2516011 0.15244457
0000f0 77 7f 5e 3d 00 5c 81 3e e1 39 54 3d a7 17 bb be
       0.05432078 0.25265503 0.05181301 -0.36541483
000100 89 d7 5e be 2d b0 10 3f 52 0c b3 bd 2e b3 68 bd
       -0.21761908 0.5651882 -0.08742584 -0.056811504
000110 a5 a6 5e 3e 8a 7a 8b 3e a3 28 92 be d2 2b 3e be
       0.21743257 0.27241927 -0.28546628 -0.18571404
000120 f5 fa 35 be c2 ee e0 be 14 8f 91 3e 88 e6 9a bd
       -0.17771514 -0.43932158 0.28429472 -0.075635016
000130 8d 19 2a 3f 22 a7 8a 3d 45 69 9e be 14 b9 8d bd
       0.6644524 0.06770159 -0.3093969 -0.069200665
000140 c7 79 90 be a4 84 dd bd ad 52 bc be bd 00 af be
       -0.2821791 -0.10816315 -0.36781827 -0.3418025
000150 bb 84 f0 3e cf 1e 92 3e 45 a4 b2 be 59 4c 9b be
       0.46976265 0.2853913 -0.34890953 -0.30331686
000160 7d d3 70 be 9a 60 1c bd 2b bf 49 3d 69 77 41 3e
       -0.23518176 -0.038178064 0.049254578 0.18893208
000170 ae 83 19 3e 55 be 8a 3e 66 c8 41 3e 00 e6 0e bf
       0.14991638 0.27098337 0.18924102 -0.558197
000180 d7 87 7d be 10 81 08 3f 70 d7 b0 be aa fd d0 3e
       -0.2475885 0.53321934 -0.34539366 0.4081853
000190 95 61 0b 3f 68 45 5f bd d5 f2 80 3e 2b 78 7c be
       0.54445773 -0.05450955 0.25185266 -0.24655215
0001a0 ee 1c df be 1f a1 77 be ac 7f 99 be 4c 9b ce 3d
       -0.4357676 -0.24182557 -0.29980218 0.10088214
0001b0 c6 6a 8b 3e bb b5 a9 bd f0 e9 94 be 5f bc b8 bc
       0.272299 -0.082866155 -0.2908473 -0.02255076
0001c0 db c7 8d bd 8f 17 aa be 21 b1 bc 3e 84 53 4b bd
       -0.06922885 -0.332211 0.3685389 -0.049640194
0001d0 9c 6c 09 3e 70 9d 95 be 3d da 01 3f 61 6c 1f be
       0.13420337 -0.29221678 0.5072363 -0.15568687
0001e0 cb 3f 4b 3e 49 a7 4a be 13 b8 c1 3e 2a 85 be 3e
       0.19848554 -0.19790377 0.3783575 0.3721097
0001f0 ea 2b 54 3e 49 91 26 3f c9 7e 46 bd ae 45 ca be
       0.20719877 0.6506544 -0.048460755 -0.39506286
000200 e0 bc 84 be e0 04 e4 be aa 0b 05 3f 0c 46 fe be
       -0.2592535 -0.4453497 0.5197092 -0.49662817
000210 43 75 97 3e f0 5f 08 3f 9f b2 16 bf 20 7a 00 bf
       0.2958165 0.5327139 -0.58866304 -0.5018635
000220 43 68 ab 3d db 49 e2 3e 3b 4b 17 3f 54 fe a5 bc
       0.08369496 0.44196972 0.5909917 -0.020262875
000230 16 2c 56 3d 78 31 2e 3e 31 4f b7 be 38 c2 4d 3f
       0.052288137 0.17011058 -0.35802606 0.8037448
000240 84 f2 0b be af 11 bb be ef dc 9e 3e aa 79 54 be
       -0.13666731 -0.3653693 0.31027934 -0.20749536
000250 8f 06 e7 be e4 49 88 be 4c f2 05 bf c1 e9 55 bd
       -0.4512219 -0.26618874 -0.5232284 -0.05222488
000260 59 27 3c bc c4 da 8f be 48 dd ce bd 07 31 57 be
       -0.011483991 -0.28096592 -0.101008 -0.21014796
000270 f0 89 6b 3f ab 30 c7 bd 1f b8 e5 3d 78 36 ea be
       0.9200735 -0.097260796 0.11216759 -0.4574468
000280 98 0f 85 be 90 c8 a0 be 9f ff 68 bd e7 24 68 be
       -0.2598846 -0.31403017 -0.056884404 -0.22670327
000290 ea aa 42 3e 2b 8d 9c be 34 0e 87 3e e9 41 ea bd
       0.19010511 -0.30576453 0.26378024 -0.114383526
0002a0 82 d7 ae 3e 5a 61 96 be 76 41 10 bf 84 c2 29 3f
       0.34148794 -0.29371148 -0.56349885 0.6631243
0002b0 62 1c fa be 80 c8 b2 bb 31 41 12 3f 00 13 8b be
       -0.4884978 -0.0054560304 0.57130724 -0.27162933
0002c0 ba 4c 8a be 87 af 01 3f 29 11 00 be 62 24 a4 be
       -0.27011663 0.5065846 -0.12506546 -0.32059008
0002d0 b6 42 e4 be a9 fc 84 3d 6c bc b6 3c 88 f6 14 be
       -0.44582146 0.064935036 0.022306643 -0.14547169
0002e0 75 b3 ef 3c 05 f3 3b 3e f6 a2 b9 be f6 ce 03 3f
       0.029260376 0.18354423 -0.36257142 0.5148767
0002f0 17 6f 80 3d 83 3f 52 be c2 23 34 3e 06 b5 f5 be
       0.06271189 -0.2053204 0.17591766 -0.47989672
000300 67 01 20 3d 29 33 df be 55 54 29 3d 40 96 86 be
       0.039063837 -0.4359372 0.04134019 -0.26286507
000310 37 d0 65 be 37 12 75 be 81 90 97 bd c7 50 e7 3c
       -0.22442709 -0.2393273 -0.07400609 0.02823676
000320 f1 97 93 bd c5 ae 8e bd b3 fe be 3e 6e 55 d8 be
       -0.07206715 -0.069669284 0.37303695 -0.42252678
000330 5b cc 03 3e 2b 34 d3 be 89 9d de 3d b9 46 0f be
       0.12870924 -0.41250739 0.10869891 -0.13991822
000340 b2 39 ec bc 89 02 a6 3c b5 44 02 be 15 6d 60 3d
       -0.028836105 0.02026488 -0.12721522 0.05479153
000350 56 78 df 3b 43 94 05 3f 1b 43 a8 bd d2 c8 7c bc
       0.006819765 0.52179354 -0.08215924 -0.015428739
000360 b9 c4 9a bd 9d 5e b8 3e 3f 12 14 be 4f fd 97 be
       -0.07557053 0.36009684 -0.14460085 -0.29685447
000370 ff aa 95 3e 1a 41 4e be 4d 23 95 3e 9b 0f 72 bd
       0.29232022 -0.20142022 0.29128495 -0.059096914
000380 cd 18 33 be 81 65 56 be 7f 6f b2 bd 6e 72 2b 3e
       -0.1748993 -0.20937158 -0.087126724 0.1674287
000390 df 47 d5 be b7 8f 57 3e 4b 05 b5 3d 44 05 93 3c
       -0.41656396 0.21050917 0.088389 0.017946847
0003a0 41 43 40 3d a4 41 7c be 28 5a 0e be 85 d0 98 be
       0.04693914 -0.24634415 -0.1390158 -0.29846588
0003b0 ac 1f 06 3d 70 41 9c 3c 2b 24 51 3d 3e 10 5c bd
       0.03274505 0.019074172 0.051059883 -0.053726427
0003c0 82 41 9e 3d 03 d7 25 be 60 df 97 bd 62 97 65 3e
       0.077273384 -0.16195302 -0.07415652 0.22421029
0003d0 c1 38 63 bd 6a d5 ce 3d 2c 09 8a 3e 4f 74 1b bc
       -0.055474047 0.10099299 0.26960123 -0.009488179
0003e0 9f 88 3c 3e 27 b6 5f 3e 58 06 21 bd 84 b0 30 3e
       0.18411492 0.2184683 -0.03931269 0.17254835
0003f0 af 5f 1b 3e 21 f1 08 be 6f 9b af bc a1 a4 d3 3c
       0.15173219 -0.13373233 -0.021436421 0.025835337
