samples/puzzle_mnist_3_3_5000_CubeSpaceAE_AMA4Conv_kltune2/logs/05-06T11:21:55.052/conv2d_transpose_1_weights.npy (npy, 102528 bytes, 1 tensors)

array f4 [1, 5, 5, 32, 32]
00000000: 34b5 81bd 1e80 5fbd 32fa a43d 2114 b93c
00000010: ae48 d0bd fb83 5d3d a983 e03c fd0a 0c3e
00000020: bf25 9f3c 56e7 4a3e 41eb ecbb 1e2a 52bd
00000030: 0ef5 f53d 602b 01be 72e7 243c ef6b ffbc
00000040: 48de 3a3d 55eb 10bd cdd7 093e 41da 633d
00000050: b7c6 153d 1014 29bc eaac a43c e799 8e3d
00000060: c64a 453d f91d 1d3c f69f a73d 741c a43a
00000070: 696e 103e 584e 12bd 993c 73bd c107 873c
00000080: 8ab2 143d bd94 d63d 95f5 aebd 6326 a8bc
00000090: 634d 09be 628d f3bd d7f9 e4bd e68d a93d
000000a0: a49a 953d 2102 21be 3af3 e03d 4ebd 45bc
000000b0: 2fc0 a83d 08e6 153e 801a 7cbd 106a e53d
000000c0: 86b1 bc3d ccd8 843d 4857 5a3b cefc 40bd
000000d0: b706 9d3c 1185 c13c 95eb afbc 02bb c2bd
000000e0: 9e17 53bd 74fb 96bc 4e49 b2bb fa2b ff3d
000000f0: 30fb 5f3e 71cf f7bb 3190 d8bc 6b78 d33d
00000100: 79e1 f9bb fc6e 6a3d a96e ed3c 30c6 57be
00000110: e712 07bd f975 1e3e 964f 233c 02e8 1b3b
00000120: 69fe 653d a40b e7bb 1ae8 db3c f94c 333d
00000130: 1b25 06bc 2074 8d3b 86a4 903d 3636 fc3c
00000140: 4443 cf3c f718 d53c 8897 153e 72be 0abe
00000150: 248f 6dbd 2e37 cdbd e7d5 71bd 340c 493d
00000160: 9643 e73b 8f13 a73c 3d1d 103d e8a6 8fbc
00000170: 22a1 25bd d9be 91bd ba7a 85bd bee1 85bd
00000180: b889 2ebe 22fa cbbc 7488 0dbe f675 24bd
00000190: eb5e 43bd 3a27 18bd 27d5 c43d 4036 fa3d
000001a0: 2eec 9bbd c530 f6bd 7e10 c03d b74e a9bd
000001b0: 3ff0 d5bc 21bb bb3d 42ef e6bd 584c 5ebd
000001c0: 076c ec3c 6156 5fbc ba30 46bd efc3 b7bd
000001d0: 28a1 96bd 15bb 8fbb 240b 673e 6ba4 65bc
000001e0: 96fa b63d 0fa2 e5bc 9694 6d3d 235c 35bc
000001f0: 701a 783c e243 75bc 90e6 a33e 22e8 0cbe
00000200: 9279 8b3d 9102 803d 4ad1 183e aff4 b73d
00000210: 5bd2 5b3c a5bb 1fbe 76f7 87bd d037 72bc
00000220: e628 703a 0af3 4b3d 41b5 6c3d 30e9 693d
00000230: cddd 2b3e ac74 b43d cd24 81bd 0b5a 893c
00000240: eafe ac3d b61c 6bbc f673 4f3a fa91 2fbd
00000250: f465 47bd 8937 963d d851 7fbd 76f1 48be
00000260: 7840 40bc 9ee1 c23c 5a61 a13c b3f8 33bd
00000270: aacb 933d adb6 873e b0c9 a23c 25da 3ebd
00000280: 271b 103d ff2b b0bc 3449 173d d226 6abe
00000290: 5bd5 703d d14f 043e 3aae 913c aafe 8c3c
000002a0: 48ee df3c 0f62 30bd 462e 1abe dc14 913c
000002b0: eb4a 9cbd b422 99bd 3c35 c03d 59ff c73d
000002c0: 6b37 b2bd 5070 5dbd 93f2 843d 1148 e2bd
000002d0: eef4 20be 7482 e5bd d0a0 a7bd aaae c23a
000002e0: b79f 473e 49ec 6b3c b76d ebbc 6bf2 9ebd
000002f0: 9bff 953d b46d 31bd 0f2d 1b3d 5380 5fbd
00000300: 65a7 80bd 95b1 3e3d 14ef abbd dcdc f8bc
00000310: a657 c0bd f3d9 1abc 7175 ef3d 5a3c 593d
00000320: 0e09 903d 3a63 cabd e7f7 e03c 4bf4 0f3d
00000330: a2ee 533e ece4 2bbe 95bb 1e3d 487e 52be
00000340: 6195 68bd 88aa c13d b3d7 93bc d573 3a3e
00000350: ba2d ed3c fe6b a5bd df6d b83d 65a7 553c
00000360: 340e 0b3d 31fe 25bd 4895 1e3e 43e6 1c3e
00000370: 172a bfbd a5f4 c43d 2e4c 843d 9840 273e
00000380: 8215 c9bb 37a5 733d b988 363d cd5e 8fbd
00000390: fa3f 10be 8a20 36be 5ca6 0fbd eb78 573b
000003a0: 7896 10be a7e6 53bd 1755 a7bc 36cf a13e
000003b0: 352c 3bbe 7c68 36be afd7 463d 4f85 21be
000003c0: e8bb df3d 19bf 57be 08c0 993d db92 eb3c
000003d0: 4f79 363e fa10 443c f3d1 a3bc ff5d 0fbe
000003e0: 6be1 85bd 8a52 023e be54 943d d5eb 61be
000003f0: ca64 843d a827 803e ea83 c83d cb06 09be
-0.0633339 -0.05456554 0.080555335 0.022592606 -0.101701126 0.054080945 0.02740653 0.13676067
0.019427178 0.1981481 -0.007230193 -0.051309697 0.12009631 -0.12614202 0.0100649465 -0.031179396
0.04562214 -0.03538068 0.13461228 0.055628065 0.036566462 -0.010319725 0.020101983 0.06962948
0.048167013 0.009589666 0.08184807 0.0012520687 0.14104618 -0.035719246 -0.059383962 0.01648319
0.03630308 0.10477588 -0.08542935 -0.020526117 -0.13408427 -0.11892201 -0.11180466 0.08279018
0.07304886 -0.15723468 0.10983892 -0.01206906 0.08239781 0.14638531 -0.06154871 0.112018704
0.092135474 0.06486663 0.0033316184 -0.047116093 0.019168241 0.023623021 -0.021474639 -0.09508325
-0.051536195 -0.018430449 -0.0054408675 0.1245956 0.21873164 -0.0075625707 -0.026435943 0.10325702
-0.0076257554 0.05723475 0.028983431 -0.21071696 -0.03297701 0.1547469 0.009967705 0.002378941
0.056150828 -0.007050948 0.026844073 0.04377458 -0.008187558 0.0043168217 0.0706263 0.030787569
0.02530063 0.02601288 0.14608586 -0.13549212 -0.057997838 -0.1002029 -0.059041884 0.049083903
0.0070576174 0.020395068 0.035184134 -0.017535642 -0.04043687 -0.071164794 -0.06517549 -0.065371975
-0.17044723 -0.024899546 -0.13821584 -0.04015156 -0.047697943 -0.037146784 0.09610968 0.122173786
-0.07613407 -0.12021021 0.09378146 -0.08266967 -0.026115535 0.091665514 -0.112761036 -0.054272026
0.028860105 -0.013631434 -0.048386313 -0.08972918 -0.07354957 -0.0043863156 0.22562844 -0.014016251
0.08934514 -0.028031377 0.05800303 -0.01106933 0.015143022 -0.014969798 0.32011843 -0.13760427
0.06810297 0.062504895 0.14923587 0.089822166 0.013416852 -0.15598924 -0.06638996 -0.014783815
0.0009161368 0.049792327 0.057790045 0.05710715 0.16783829 0.08811316 -0.06305847 0.016766569
0.084470585 -0.014350107 0.0007913703 -0.042863823 -0.048681214 0.07334811 -0.06233391 -0.1962336
-0.011734121 0.023789223 0.019699741 -0.04393835 0.0721658 0.26506558 0.019871563 -0.046594758
0.035182144 -0.021505354 0.036935046 -0.22866371 0.05879722 0.12921073 0.017783273 0.017211277
0.027335301 -0.043062266 -0.15056714 0.017710142 -0.07631477 -0.07477322 0.09385154 0.097655006
-0.087019764 -0.054062188 0.0649158 -0.11048902 -0.15718433 -0.112065226 -0.081849694 0.0014853079
0.1949452 0.0143995965 -0.02873884 -0.07761081 0.073241435 -0.04331751 0.037884768 -0.05456574
-0.06281928 0.046556074 -0.0839521 -0.030378751 -0.093917176 -0.009451377 0.11692322 0.05303607
0.07032977 -0.09882207 0.027461959 0.035145085 0.206965 -0.16786546 0.03875311 -0.20555985
-0.056783084 0.094563544 -0.01804719 0.18208249 0.028952468 -0.080772385 0.09005331 0.013040398
0.033949092 -0.04052562 0.15486634 0.15322213 -0.093342 0.09616975 0.064598426 0.16333234
-0.006136597 0.059483733 0.044563983 -0.07000504 -0.14086905 -0.1778585 -0.035070762 0.003287847
-0.141199 -0.05173364 -0.020426316 0.31603402 -0.18278582 -0.17813295 0.048545536 -0.1577351
0.10924512 -0.21068992 0.0750733 0.02875655 0.17819713 0.011966938 -0.019997573 -0.140007
-0.06537136 0.12726799 0.07242726 -0.22062619 0.064645365 0.25030255 0.097907856 -0.13381498
