samples/puzzle_mnist_3_3_5000_CubeSpaceAE_AMA4Conv_kltune2/logs/05-06T11:21:55.052/conv2d_2_weights.npy (npy, 102528 bytes, 1 tensors)

array f4 [1, 5, 5, 32, 32]
00000000: 8cd5 82bd 17e8 03be 133e e9bd 2c84 4bbe
00000010: fa5c 49bd a8dd babb ca1e d73b 96eb 353d
00000020: 4a26 b1be 25b0 f7bc e253 d13c 9ff6 173d
00000030: f870 90be b607 01be c821 fdbd d828 4abd
00000040: 60c6 3dbe 0618 01bc 8a28 a0be 7f7e 8f3b
00000050: 9772 f13c 636c 95be 141c ffbc ad83 36bd
00000060: dc40 373e e3ee 473c d905 ccbd bbae 5f3c
00000070: f70d b5bd 3436 1bbc eeff 033b e62c 1ebd
00000080: 4937 aebc d951 9fbd 212f 553b 911a a03d
00000090: 0e20 9cbb 16a3 41be 05cd ae3c d3e4 eb3d
000000a0: aa79 c43d c9de c0bb 604c 5cbe 1559 f0bd
000000b0: 1578 503e 98b9 373d 9231 10be ddda b4be
000000c0: 271d 913d 1fb8 80bd 1873 773d 167e a9be
000000d0: a9e2 123e 2c5a 023e 61fb 353d 08a1 f8bd
000000e0: 00c6 ef3d 7199 a0bd 3b90 a13c bbb2 1d3d
000000f0: 816c da3d c6b5 88bd 31b7 abbd 647f f4bd
00000100: 23ed a4bc 87f9 883d f601 7e3d 39f7 10be
00000110: c583 053c 4af8 643c eab6 16bd 2d3c 69be
00000120: 5b55 e33c 9548 63bd 5b23 43bc 6349 8abe
00000130: bb5a 853d 051d 02bd 27b2 09ba 77a6 2bbd
00000140: 5501 81bd 7263 73be bb77 26bd 6307 abbd
00000150: ff14 1fbe 74c6 133e 926d 65bc 9eaf e73d
00000160: bc3d 62bb 6322 02be fdd8 e8bc 3145 2e3c
00000170: b72e f9bc a1a2 063e d0f8 92bd b379 813d
00000180: 85d5 133d 3d27 e0bd d40b 2a3e d030 053e
00000190: f837 8a3d 4954 1bbe bb8b 683d 9ffe 063e
000001a0: 4311 22bc dbbe 723b 7b7e 9abc a7fa 87bd
000001b0: 6223 65bd cf48 3bbe ae54 4dbd 0afb b2be
000001c0: 7b37 4c3e a005 e4bd d0a4 69be 6415 4ebc
000001d0: d23b 173d bfac be3d b74f c1bc 1470 9cbd
000001e0: d24f 8d3d 2090 943d 935f 9ebd e0bf 32be
000001f0: 2048 00be 5a63 87bd fe29 953d 47ba 003d
00000200: e9bf f1bd a0b0 91bd 9a84 5cbe 43e5 a23d
00000210: 5853 563d 2023 eabc 8e36 59be 2a31 26bd
00000220: 4cf4 8b3d 491a 25bc 9468 a43d 1e3f 443b
00000230: 6ecc 5f3d 0125 823d 59a4 4d3d 07e0 7fbe
00000240: f8b9 393d 0a3b 45bc 3441 503c 6c88 ccbd
00000250: 9d20 613d 8040 ee3c 60ff 91bd 136a c53d
00000260: d6e7 053d 62a0 48be 8614 debb 793c 41be
00000270: b6d7 793d 8da2 2ebf 52b5 22bf 0978 c1be
00000280: e395 15bd 22bb 283d 0054 93be 59b3 d7be
00000290: 1533 d5be 2372 25be b5f8 09be 4feb f73d
000002a0: c4d2 0a3d 1a08 9c3d d595 35be a36d f5bd
000002b0: 9af0 0bbe 4bba 8bbc d6bf a13c 1d7f 7dbf
000002c0: 8d56 853d 078d 5abd d760 2c3d 01bb c6be
000002d0: 37d1 cd3d 4f61 383d 8859 79bd 903e 2c3e
000002e0: 2f00 8e3d 8d18 e3be 1573 8ebe c788 f1bd
000002f0: b5b3 973d 6c93 f1be 4019 adbd 9953 92be
00000300: ae5a 9bbc f71f 183e 7888 83bc 4ff9 6dbe
00000310: 9f7d 12be d13a 67bd fd5c 27be e2a2 ba3e
00000320: 79be 3bbe ad81 193d aee1 34bc 3850 993d
00000330: f21e c13d cb78 5cbe 7a5e 8a3d 3280 7abe
00000340: 8916 8d3d 713b abbd 766d aabd a333 d4be
00000350: 7fa2 b73e a818 043e 110e 06be f162 aabc
00000360: 62c7 cf3c 0b02 13bd 301f 373d b2d9 773d
00000370: 8900 6d3d 1e61 22bb 6174 9abd 000c 46bd
00000380: c53e 5d3d 6f56 f2bd b59d 403e 92dd f53d
00000390: a624 823d 799d 293e 356d 833e 44fe 26be
000003a0: 5888 da3c 419b 06bd 13c6 e73d e1f2 1d3c
000003b0: 3ef0 8cbd 58c2 0d3e ad3a 68be d159 933e
000003c0: c675 88bd a04e 1fbd b2cd 663d 031f 3fbd
000003d0: 9c4f bbbe 5db4 86bd 2e26 9fbd 0c78 71be
000003e0: dff1 133e 85c7 a53d af3b c4bd 303f 93be
000003f0: b533 13be 79cf e43d 1ce2 863e 0b66 663e
-0.06388387 -0.12881504 -0.11388793 -0.19874638 -0.049160935 -0.005702693 0.0065649496 0.044414125
-0.34599525 -0.03023536 0.025552694 0.03710043 -0.28211188 -0.12600598 -0.12359959 -0.049355358
-0.18532705 -0.007879263 -0.3128093 0.004379093 0.029473586 -0.29184255 -0.031141318 -0.04455917
0.17895836 0.012202951 -0.09962053 0.013652499 -0.08840554 -0.009473372 0.002014156 -0.038617037
-0.021266596 -0.07779283 0.0032529312 0.07817567 -0.0047645634 -0.18909869 0.021337995 0.11518254
0.09593518 -0.005885933 -0.2151351 -0.11735741 0.20358308 0.04485473 -0.1408141 -0.3532323
0.070856385 -0.06285118 0.060412496 -0.33104008 0.14344276 0.1272971 0.044429187 -0.12140089
0.117076874 -0.078417666 0.019722095 0.03850053 0.10665227 -0.066752955 -0.0838455 -0.1193836
-0.020132607 0.066882186 0.06201359 -0.14156808 0.008149092 0.013975212 -0.036795534 -0.22776861
0.027750662 -0.05548914 -0.011910285 -0.27009115 0.06511446 -0.031765956 -0.0005252682 -0.0419068
-0.06299082 -0.23768404 -0.040641528 -0.08351018 -0.15535353 0.14431173 -0.014003174 0.11312793
-0.003452166 -0.1270843 -0.02842378 0.010636614 -0.030417783 0.13147976 -0.071763635 0.063220404
0.0360923 -0.10944984 0.16606075 0.13006902 0.067489564 -0.15168871 0.056773882 0.13183068
-0.009891811 0.0037040028 -0.018859139 -0.06639605 -0.055941947 -0.18289493 -0.050129585 -0.34957153
0.19943039 -0.111338854 -0.22816777 -0.012578342 0.036922283 0.093102925 -0.023597581 -0.07638565
0.0689999 0.07254052 -0.07733073 -0.17456007 -0.12527514 -0.06610747 0.072834 0.031427648
-0.11804182 -0.07113767 -0.21534958 0.079538845 0.052325577 -0.028581202 -0.21212217 -0.04057423
0.06833705 -0.010077068 0.08027759 0.0029944847 0.05463832 0.06354714 0.050205562 -0.24987803
0.04534337 -0.012038002 0.012710858 -0.09986958 0.054962743 0.02908349 -0.07128787 0.09639373
0.0326918 -0.19592431 -0.006777349 -0.18870725 0.060996734 -0.6821678 -0.6355792 -0.37786892
-0.036519896 0.04119409 -0.28775024 -0.4212902 -0.41640535 -0.16156821 -0.1347378 0.121054284
0.033892408 0.07618733 -0.17732938 -0.11983802 -0.13666001 -0.017056605 0.019744795 -0.99022084
0.06510649 -0.05335715 0.04208454 -0.38814548 0.1004967 0.045014676 -0.0608764 0.1682074
0.06933629 -0.44354668 -0.27822176 -0.11793666 0.07407323 -0.47182786 -0.08452082 -0.28579405
-0.018964138 0.14855944 -0.016056284 -0.23239635 -0.14305733 -0.056452576 -0.16344066 0.36452395
-0.18334378 0.037477184 -0.011040134 0.07486004 0.094297305 -0.21530454 0.06756301 -0.24462965
0.06889064 -0.08360947 -0.08321659 -0.41445646 0.35866162 0.1290003 -0.13091303 -0.020799132
0.025363628 -0.03589062 0.044707477 0.060510345 0.05786184 -0.0024777125 -0.07541729 -0.048351288
0.05401494 -0.11832892 0.1881016 0.12005152 0.063546464 0.16563977 0.25669256 -0.16307932
0.026676342 -0.032862905 0.113170765 0.009640426 -0.0688176 0.13843668 -0.22678633 0.28779462
-0.066630885 -0.038893342 0.05634851 -0.046660434 -0.36584175 -0.0657737 -0.07770954 -0.2358095
0.14447735 0.08094696 -0.09581696 -0.28759146 -0.14375193 0.11172385 0.26344383 0.22499864
